moe_best.pth (torch, 177229 bytes, 46 tensors)

expert_keys f4 [6, 64]
000000 c2 af cf 3c 4f ac a1 3c 3b 62 60 bd 40 6f fe bd
       0.025352363 0.019735483 -0.05478118 -0.12423563
000010 5f b3 f8 bd 9e d6 23 3d 23 01 01 bd 4f d6 97 bd
       -0.12143587 0.039999597 -0.031495225 -0.07413923
000020 2b 9c 1a 3e 5f 1c d1 3d 1e d7 9d bd 68 69 58 bd
       0.15098636 0.102104895 -0.07707046 -0.0528349
000030 be f2 47 37 9e e4 85 bd c2 35 53 bc 5d 09 5c be
       1.1917842e-05 -0.06537746 -0.012891235 -0.21487947
000040 d2 dd e7 3c c8 07 1c be 42 d4 df bd c8 9a 9c bc
       0.028304014 -0.15237343 -0.10929157 -0.019116774
000050 35 ec 10 3d a8 84 2d 3d f0 09 f7 3a 8a dd 20 bd
       0.035381515 0.04236284 0.0018847566 -0.039273776
000060 63 d8 4c 3e a4 2c 1f 38 e7 1d dc bd 6b 9f b1 bc
       0.2000442 3.795013e-05 -0.10747891 -0.021682462
000070 e6 4e 10 3e 5b 9e a4 bd f3 5a aa bd 42 bb 61 bd
       0.14092597 -0.080380164 -0.083181284 -0.055110224
000080 01 eb 4a bd 08 34 1f 3d 17 89 40 3e 23 25 90 be
       -0.049540523 0.03886798 0.18802296 -0.28153333
000090 4d 7b 0c be db c0 b5 3c 18 9a f3 bb a0 d8 02 3e
       -0.1371891 0.022186687 -0.007434141 0.12777948
0000a0 05 1e 98 bd 99 9e 0b be e7 b1 9b bc 22 2d 32 3e
       -0.07427601 -0.13634719 -0.019005729 0.1740003
0000b0 b0 62 75 bd ef b4 d7 3c db a8 43 3d 86 d2 a6 3c
       -0.05990857 0.026331393 0.047768455 0.020364057
0000c0 af 83 8d 3c e2 a5 99 bd e3 01 d6 bb 24 c5 a5 3c
       0.017274706 -0.07502343 -0.0065309866 0.020235606
0000d0 bd a5 3e bd 5f 25 71 bd ab cc 83 bd 43 f3 90 bd
       -0.04654478 -0.05887353 -0.06435522 -0.070776485
0000e0 3b 62 0c bd 93 98 a1 bd e2 6e 0a 3c 10 fa 15 3e
       -0.034273367 -0.07890429 0.008449288 0.14646173
0000f0 5a 70 74 bc 79 97 0e be 28 08 e0 3d db d8 59 3d
       -0.014919365 -0.1392497 0.10939056 0.053185325
000100 57 ea 0b bd aa 3f 94 3c 41 8c 33 be ab 71 95 3b
       -0.03415903 0.018096764 -0.17533971 0.0045606694
000110 12 ea 58 3b 8f 26 fa bc 70 ef 17 be df 0c 59 bd
       0.00330985 -0.030535964 -0.14837432 -0.05299079
000120 fd fb e7 bc e6 04 0f bd 63 8c 5a be 20 1c 1d bd
       -0.0283184 -0.03491678 -0.21342616 -0.0383569
000130 37 11 a7 bd bd 44 44 3e 2f b8 a6 3d f7 8a 8a bc
       -0.0815758 0.19166847 0.08140599 -0.016911967
000140 15 4e 41 bd 35 19 42 bd bf 6b df 3d 5f 1a 63 3d
       -0.047193605 -0.04738732 0.10909223 0.05544507
000150 68 a2 bd bd 43 8d e1 3d 62 b3 62 3d 55 3d 16 3d
       -0.09259492 0.11013272 0.055346854 0.036679585
000160 35 32 c6 bd d1 29 45 be 67 0f f8 3b a5 bd df 3d
       -0.09677545 -0.19254233 0.0075701955 0.10924844
000170 87 03 11 3d f7 eb d7 39 67 60 c6 bc 6f 58 92 ba
       0.035403755 0.00041183803 -0.02421589 -0.0011165271
000180 a5 0f de 3d 5d a0 f5 bd 28 86 a3 bc 4f df 91 3b
       0.10842828 -0.119934775 -0.019961432 0.0044516693
000190 53 a2 e2 bd cd f5 a8 bd 75 32 96 3c ab 42 31 3e
       -0.11066117 -0.08250008 0.018334607 0.17310588
0001a0 e1 3c c3 bc 24 82 88 3d 7b 86 db 3d 9a 0e 1a 3d
       -0.02383274 0.06665447 0.107190095 0.03761158
0001b0 6b d3 84 bd 99 f9 83 3e b8 8a 2f bd 7f 98 1f 3e
       -0.06485637 0.25776365 -0.042856902 0.15585516
0001c0 a5 dd b6 bc d3 17 d6 bd ab 88 28 3d 97 3a a9 3c
       -0.022322485 -0.10453763 0.04114596 0.02065782
0001d0 bb 71 b0 3a f7 9e ed bd 06 0f 09 bd ab d8 c3 3c
       0.0013461629 -0.11602586 -0.033461593 0.023907026
0001e0 a7 11 4e 3c 9c f4 a9 bd 3b 25 12 3e 31 41 90 bd
       0.012577451 -0.08298609 0.14272015 -0.07043684
0001f0 23 0d f1 3d 19 b4 41 3d b3 22 57 bc 2a 7b 4f bd
       0.11770084 0.047290895 -0.0131308315 -0.050654568
000200 4f 14 7b bc e6 32 37 3c 1e 6f 40 bd fb c4 f5 bd
       -0.015324666 0.011181569 -0.04698097 -0.12000462
000210 f6 50 a7 3d 95 84 e5 3d 1c 82 20 3d 28 9b a1 bd
       0.08169739 0.11206929 0.039186582 -0.07890922
000220 ed c0 94 3c ea 96 b0 3d 0c 73 03 3e 2b 6b b4 bd
       0.0181584 0.086225346 0.12836856 -0.08809503
000230 f8 66 c7 bc 71 f2 b6 bc ad ac 76 bd 1b d7 c7 bc
       -0.024341092 -0.022332402 -0.06022327 -0.024394562
000240 e0 13 e9 bb 82 7b 42 be 7f dc 94 bc 3d b6 f5 bc
       -0.007112965 -0.18992427 -0.018171547 -0.029994125
000250 07 7b 20 bd ac 31 46 3d 5b 5a d6 bd d3 dd 41 bd
       -0.039179828 0.048387215 -0.10466453 -0.04733069
000260 7b 45 9c 3d 99 3b 88 3c 37 ad a0 bd ba 1e 37 bc
       0.0763044 0.01662998 -0.07845538 -0.011176759
000270 16 3c 19 be 9f 0b 40 3d 27 97 04 3e 92 45 b4 3c
       -0.14964327 0.046886083 0.12948285 0.02200583
000280 59 ea a3 bd 86 8b 82 bc 83 eb ca bd 15 22 88 3b
       -0.08003683 -0.01593567 -0.099082015 0.0041544535
000290 47 16 51 bd 41 9b 9a bb 65 df 41 3d 28 66 38 be
       -0.051046636 -0.0047182147 0.047332186 -0.1800772
0002a0 9d 3d f0 3c 47 b0 e2 bb 10 65 f9 bd 4f 41 02 3d
       0.029326255 -0.0069179866 -0.12177479 0.031800564
0002b0 97 81 0b 3e 68 4c 65 3d 8c f9 84 bd a7 8f c5 bc
       0.13623653 0.05598107 -0.0649291 -0.02411635
0002c0 47 c6 e8 bc 70 c3 e6 3d 8f 51 91 3c a0 d5 bf 3d
       -0.028414859 0.112677455 0.017739085 0.093669176
0002d0 4e 9f aa bd b5 44 4d 3e e5 f8 7f bd b3 00 31 bd
       -0.08331166 0.20045741 -0.062493224 -0.043213557
0002e0 fb 89 38 bc 05 f5 cd 3d ca 6a 0e 3e 78 8d 52 3e
       -0.011263366 0.100564994 0.13907924 0.20561779
0002f0 4a 9b c2 bc 84 54 8a bd 74 e9 a0 bd c7 f1 f9 3c
       -0.023755688 -0.06754401 -0.07857028 0.030510796
000300 27 3d 30 be 93 7e 4d be 42 fb d8 3b d3 7c 76 bd
       -0.17210828 -0.20067815 0.006621749 -0.060177635
000310 07 ed c3 3d 16 7b 04 bc e7 f2 e1 3d 19 e3 0c bd
       0.09566694 -0.008085987 0.11032658 -0.034396265
000320 32 16 48 bd fb c0 57 3c 66 aa 3d 3e 0b ba cf 3b
       -0.048849292 0.013168569 0.18522033 0.0063393167
000330 d0 21 93 3d 4d c7 56 3d ba 51 8d 3d ee 38 3d 3d
       0.071841836 0.05243616 0.06900354 0.04619687
000340 c0 a1 ce bd cd fd 81 bd 92 88 ab bd 5b 5b 82 3d
       -0.10089445 -0.06347237 -0.08375658 0.06365081
000350 67 4f b7 3d 20 f1 16 be 49 a8 9b bd c8 42 b7 bc
       0.08950692 -0.1474042 -0.07600457 -0.022370711
000360 6f 95 4b bd 83 65 7a 3d e2 1b 4d be 22 a8 9a bc
       -0.049703058 0.061131965 -0.20030168 -0.018879
000370 75 7f 16 be 77 18 9b 3d 77 63 26 3d 8b 9b 67 3c
       -0.14697058 0.07573026 0.0406222 0.014136205
000380 d5 6d e9 bb 43 ca 34 bd 95 51 03 3d 0b 67 9f 3e
       -0.0071236887 -0.044138204 0.032060225 0.31133303
000390 58 61 80 bd 9f 43 c4 3d d5 49 ec 3c f0 08 85 bc
       -0.06268567 0.0958321 0.0288438 -0.016239613
0003a0 84 90 09 be e3 a3 d1 3d 50 18 70 bd 9b ce ab 3d
       -0.13434035 0.10236337 -0.058616936 0.08389016
0003b0 6c 31 97 bc 3d 01 1b 3c 28 10 c4 3c 56 57 14 3e
       -0.018456183 0.009460744 0.023933485 0.14486441
0003c0 fc 11 a2 3c 36 fc 99 bc ee 40 2f be 5a c7 81 bd
       0.019783966 -0.018797021 -0.17114612 -0.063368514
0003d0 31 7c 27 3d 9a e6 08 bd 13 2d 14 3e 8d 9f 9c bd
       0.040889923 -0.033423044 0.1447032 -0.076476194
0003e0 8d 95 88 bd b3 db 4e 3d 9e 5b 1a 3e 02 96 ec bc
       -0.066691495 0.05050249 0.15074012 -0.028880123
0003f0 bf 89 e6 bc 62 a6 ea 3d 78 66 73 bd 23 8e ef 3d
       -0.028141854 0.11457516 -0.059423894 0.11697032

backbone.fc1.weight f4 [64, 80]
000000 ba f1 61 be 5d 36 b8 3d 3b 4d 49 3e 0c 79 a5 bd
       -0.22064868 0.08994744 0.19658367 -0.080797285
000010 88 7c a9 bd 78 4c 48 3c 50 de e3 bc 8a 9b 25 3b
       -0.082757056 0.012225263 -0.027815968 0.002526971
000020 54 69 0a bd 1d ca 46 be 86 44 99 3a c4 19 96 bd
       -0.033791855 -0.19413038 0.0011693395 -0.07329133
000030 04 f6 10 be 98 39 92 bd 48 6b 98 be c9 90 3c 3c
       -0.14156348 -0.071398914 -0.2976935 0.011509129
000040 1d 6f 1d be 5f 0a 09 be 34 eb b8 3c 54 6e 36 be
       -0.15374418 -0.13382863 0.022573091 -0.17815524
000050 d9 69 c8 bd 9f b0 84 bd ff d4 82 bc 8b 84 95 bd
       -0.09785814 -0.06479 -0.015970705 -0.07300671
000060 99 24 ca bd 4a cd f0 3d 35 9a da 3b 6e b9 ea bd
       -0.09870262 0.11757906 0.006671215 -0.11461149
000070 4b dc f7 bc 3e 4b 5a bd d5 99 b4 bd f7 17 10 3d
       -0.030256411 -0.053294413 -0.08818404 0.035179105
000080 39 b2 a4 bd d7 39 20 bc ce e2 b6 3c cd a6 10 bd
       -0.08041806 -0.009779415 0.022324946 -0.035315324
000090 4f b0 ee 3d 62 28 f1 3d e8 b8 da 3b d8 8f 19 be
       0.11654722 0.117752805 0.0066748746 -0.14996278
0000a0 a9 54 59 be 71 eb d4 3c 29 a9 1f 3e 76 85 b6 bc
       -0.21223702 0.025991173 0.15591873 -0.022280436
0000b0 4c bd 0e be 8d d8 fc 3d b2 5c a4 3d 9b ff ad bd
       -0.13939399 0.12345991 0.08025493 -0.084960185
0000c0 db 62 71 bd 2a b5 18 be 39 b6 f3 3d cd 6f 5e 3d
       -0.058932167 -0.14912859 0.118999906 0.05430584
0000d0 3a c9 b0 bc 25 34 50 bd e3 e3 94 be c2 b3 8f 3d
       -0.021580327 -0.05083098 -0.29080114 0.07016708
0000e0 4b d7 ef 3d a6 1c ac bd d8 8f 93 3e cf df 5d be
       0.11710986 -0.08403902 0.28820682 -0.21667407
0000f0 91 6e 22 3c f6 8a 9f 3c 3d e4 24 3e 55 f9 fb bd
       0.009914056 0.019475441 0.16102691 -0.12303416
000100 82 29 2e bd d5 ca a6 bd f7 58 9a bd be 65 6a bd
       -0.042520054 -0.08144156 -0.075365 -0.057225935
000110 18 74 10 3e 94 d1 29 be 26 41 22 3d 6f b8 e7 3b
       0.14106786 -0.16583854 0.03961291 0.0070715467
000120 88 39 7a bd a2 26 03 be d2 fc a9 bd 12 86 e6 bd
       -0.061090022 -0.12807706 -0.08300175 -0.11256041
000130 25 ec 50 3e bb 18 cb 3d 51 79 ee 3c e1 de 29 be
       0.20402582 0.09916826 0.029110583 -0.16588928
000140 7c 01 cb bd 77 23 1a 3e f6 3d f1 3c de a8 3c 3d
       -0.099123925 0.15052591 0.02944849 0.04605948
000150 f1 8b b4 3d a2 57 59 bb ae 32 06 3e 76 f0 bc 3d
       0.08815754 -0.0033163805 0.1310527 0.09225552
000160 0c 31 a5 bd 02 15 9f 3c 85 3d 81 3d 8f ec d6 3c
       -0.080659956 0.019419197 0.06310562 0.026235847
000170 1d 39 9b bd ea be 42 3d ba c2 10 be 70 08 e4 3c
       -0.07579253 0.04754535 -0.14136782 0.027836055
000180 7b 2f c1 3d 38 05 b4 bd d9 66 89 bd 62 f5 4b 3d
       0.09432884 -0.08790058 -0.0670907 0.049794562
000190 67 d0 07 bd 0f 47 2e bc 45 32 02 3c b5 30 9f bd
       -0.033157732 -0.010637059 0.0079465555 -0.07772962
0001a0 b2 fd a6 3d bb c8 8b 3c 4a cb 80 3e a6 97 29 3e
       0.08153857 0.01706349 0.25155097 0.16561756
0001b0 11 ec 98 bc 49 b0 c0 3c eb ec 3e 3c 99 0f 1a be
       -0.018667253 0.02352156 0.011653165 -0.15045013
0001c0 4e 63 c4 bd 6a 1f ad bd 4a e7 2d be e8 f9 94 3d
       -0.09589253 -0.084532574 -0.16982761 0.07274228
0001d0 14 da f4 3d 90 fd 86 bc a2 df 63 bd 20 0d 06 be
       0.119556576 -0.01647833 -0.055633195 -0.13090944
0001e0 eb 9e 26 3e 46 a1 01 3c a8 f9 eb bd 16 91 ef bd
       0.1627156 0.007911986 -0.115222275 -0.11697595
0001f0 17 83 8b bd 22 a3 57 3e 3f fc c5 bd 83 67 51 be
       -0.06812113 0.21058324 -0.09667253 -0.20449643
000200 58 37 dc bd 81 6d 32 be d7 ec 3a be 12 34 3f bd
       -0.107527435 -0.17424585 -0.1825441 -0.046680517
000210 98 f5 c8 3d fd b6 80 be 7e 0c 80 3d 74 9e 05 bd
       0.09812468 -0.2513961 0.06252383 -0.032621816
000220 c9 bc 7b bd 48 10 a6 3d 13 84 3e be 99 b8 38 3e
       -0.061459336 0.08108574 -0.1860507 0.18039168
000230 7d c6 c5 bd 82 44 df 3b a0 0e df 3c ec 78 39 bc
       -0.09656999 0.0068135867 0.027228653 -0.011320334
000240 99 a1 86 3a b5 0c ab 3d 24 b7 70 bd 4c aa 89 bd
       0.0010271549 0.08352033 -0.058768407 -0.06721935
000250 c1 9a ae bd d9 0b 44 bd 52 f2 fb 3d 88 3b cc 3d
       -0.08525611 -0.04786286 0.12302078 0.09972292
000260 39 f9 90 3d c7 7f 3d bd 02 90 c3 bd 50 11 18 bd
       0.070787854 -0.046264436 -0.09548952 -0.037125885
000270 af 2c 0d 3e cd 4e 99 3d d2 75 24 bc ba 01 02 bd
       0.13786577 0.07485733 -0.010037856 -0.031739928
000280 ff b9 c0 3c d3 17 b3 bd 28 23 6c 3d 55 bb 5e 3e
       0.02352619 -0.087447785 0.057650715 0.21751149
000290 2c 99 b3 bd 67 cb 14 3e 2c 30 21 be ec 91 5f be
       -0.087694496 0.14530717 -0.15741032 -0.21833009
0002a0 ee 7b ce bd e8 c8 04 be ce bd de 3d 23 1d 2a b9
       -0.100822315 -0.12967265 0.10876046 -0.00016223318
0002b0 b8 ed f1 bd a5 d0 30 bd 6a ff 97 bc 58 9f 91 bd
       -0.118129194 -0.04316773 -0.018554408 -0.071104705
0002c0 94 03 4d 3d 65 2b ea bd 89 44 d2 3b bb fc 81 3d
       0.05005224 -0.11434058 0.0064168614 0.06347033
0002d0 31 0b 16 be 62 1e 57 bd 65 6f 0a 3e 12 d2 c5 bd
       -0.14652707 -0.05251921 0.13519056 -0.09659208
0002e0 73 63 0d 3e 05 8b b5 bc 4e 64 70 bc a9 c0 8f bc
       0.13807468 -0.022161016 -0.014672352 -0.017547922
0002f0 f2 a0 b0 3c 19 91 98 3d 17 6e 24 bd 6f ff 40 3e
       0.02156112 0.0744955 -0.040144052 0.1884744
000300 00 27 3b 3e ee 65 e2 3a 34 e6 80 3d bb 93 8c 3d
       0.18276596 0.0017272809 0.06293908 0.06864115
000310 d8 af 24 bd 0f 69 6b 3d ed 55 35 3d 2b 36 34 3d
       -0.04020676 0.05747324 0.0442714 0.04399697
000320 39 0a a1 3d d0 36 e3 bd e8 c2 3c 3d 80 ac 0a 3e
       0.07863278 -0.11094439 0.046084315 0.13542366
000330 4e d7 a3 3d 87 12 9d bc 68 40 ad 3d ba fc 04 3e
       0.080000505 -0.019173874 0.0845955 0.12987033
000340 03 3f 85 3d f1 d8 47 3d c4 6b 66 bd fa 0e 3e 3d
       0.06506159 0.048790876 -0.056255117 0.046401
000350 8b 06 ac 3d 79 e7 98 3d 1e 9c dc 3d 6a d5 13 3d
       0.083996855 0.07466025 0.107719645 0.0360922
000360 3b 85 ee 3d 10 55 14 3e 28 b1 4a bd 37 93 02 3e
       0.116465054 0.14485574 -0.049485356 0.1275147
000370 07 ee ff 3c 68 89 d6 bd 37 0b 3e be a4 56 aa 3c
       0.03124143 -0.10475427 -0.18558966 0.020793267
000380 24 3c 04 bc 66 77 fc bd 2c c9 4e 3d 22 72 38 bc
       -0.008070979 -0.12327461 0.05048482 -0.01125768
000390 33 8c fc 3d cd 37 8b bd d8 4a b6 3c c7 ba 0a be
       0.123314284 -0.067977525 0.022252485 -0.13547812
0003a0 49 56 ff bd f0 0b 09 be d7 7f 5d 3d d3 5d 01 be
       -0.124676295 -0.1338346 0.054076996 -0.12633447
0003b0 38 78 49 bd 52 fe df 3d 53 80 d7 bd b5 bb 71 3d
       -0.049186915 0.109371796 -0.10522523 0.059016902
0003c0 60 91 76 3d 8c cd 14 bd d4 2b f7 bc de a6 0b be
       0.060197234 -0.036328837 -0.030172266 -0.13637874
0003d0 2c 95 1a be 84 2b 28 bb 8d cb cb 3d c5 0f a3 3d
       -0.15095967 -0.0025660703 0.099509336 0.07961992
0003e0 86 4f 14 bd 67 8c 2d be 79 d2 69 3d 17 4b e8 bc
       -0.036208652 -0.1694809 0.057085488 -0.028356118
0003f0 fe 03 ce bd e7 92 11 bc be bb 43 be e3 7e 74 3d
       -0.10059355 -0.008885122 -0.19114587 0.05969132

backbone.fc1.bias f4 [64]
000000 6c 24 bd bd 5a 2d cc 3c ea f1 37 3c 88 a9 20 be
       -0.092354625 0.024923969 0.01122711 -0.15689671
000010 f8 fc e2 bc 5c 69 6b bd 3c f2 ae bd 3a e1 b8 bd
       -0.027708516 -0.057473525 -0.08542296 -0.090273336
000020 6a a9 05 3d 59 b6 0a bd ff a0 eb 3c 07 63 e4 bc
       0.03263227 -0.033865307 0.028763292 -0.027879251
000030 ac f6 1f bd bf 51 ac bd 08 04 1d bd 4a 1f 2d 3d
       -0.039053604 -0.08414029 -0.038333923 0.042266168
000040 e7 9e 5d 3d c3 0f 8e bd 09 c9 bb bd ed 6f 1d 3b
       0.05410662 -0.069366 -0.09169204 0.0024023012
000050 7d 2d 9b bd 9e bd 96 3b a9 ca 2a bd 2f e9 58 3b
       -0.075770356 0.004600241 -0.041697178 0.0033097973
000060 4c 38 cc bd 52 f6 37 3d 73 8a 80 3d 3f 47 f5 bc
       -0.09971675 0.044912644 0.06276407 -0.0299412
000070 7c 9a 20 bb f5 98 06 3c cc 99 80 3d ec e9 10 3c
       -0.0024506142 0.008215179 0.062793344 0.008844834
000080 2b de 0b bd 64 1a 9d 3d b6 e3 81 bd 97 64 42 3d
       -0.034147423 0.07671049 -0.063422605 0.04745921
000090 d1 62 d1 3c 09 75 af bd 95 3e 53 3d aa 0f 8b bd
       0.025559815 -0.085672446 0.051573355 -0.06790097
0000a0 06 ca 69 bc f3 d3 15 be cd 67 6b bd c7 31 80 3b
       -0.014269358 -0.14631633 -0.05747204 0.003912184
0000b0 1c 2b d8 3a 17 04 4a bd 3a a4 55 3d 70 a7 07 be
       0.001649234 -0.049320307 0.05215857 -0.13247466
0000c0 64 e3 fb bd 11 40 58 3d 36 21 b5 3d 6d af 95 3c
       -0.12299231 0.052795473 0.08844225 0.018272126
0000d0 78 5a f5 bd 85 1c c5 bd 0a 22 59 3c 9e 9a 24 bb
       -0.11980146 -0.0962458 0.013252744 -0.0025116573
0000e0 6a ba 8a 3b c4 b9 6f bb c8 21 e8 bd e5 dc 81 bd
       0.004233648 -0.003657923 -0.11334568 -0.063409604
0000f0 e4 a2 70 3b 77 eb ba bd 48 fc 6a bd 5b 1f 20 be
       0.0036718184 -0.091269426 -0.0573695 -0.15636961

backbone.fc2.weight f4 [64, 64]
000000 c4 29 86 bd b0 88 db bd 63 4b aa 3d ad 60 dc 3d
       -0.06550935 -0.107194304 0.0831516 0.10760627
000010 95 a6 ee 3d 37 16 16 3e e5 6c 5f bd 01 cb 7b bd
       0.11652867 0.14656912 -0.05454721 -0.061472896
000020 14 a7 48 bd 76 28 fc bc 26 93 12 3e 13 ea 2f 3d
       -0.048987463 -0.030781012 0.14313945 0.04294784
000030 ea 85 ed 3d 30 e1 64 3d f9 f2 44 bd 9b a3 f3 3d
       0.11597808 0.055878818 -0.04808328 0.1189644
000040 cb 72 bb bc 8b 67 07 3e 05 30 b3 bd ed 1a 14 be
       -0.022881886 0.13223092 -0.087493934 -0.14463396
000050 c3 d9 45 3e e8 29 cd bd 65 d1 2e 3e e0 c1 14 3e
       0.19321351 -0.100177586 0.17072065 0.14527082
000060 7f 00 e5 3d 78 ef 35 be 65 35 7c 3d 47 8d 0a 3e
       0.11181735 -0.17767131 0.06157436 0.13530456
000070 fb 80 75 3d b1 81 11 3d 3a 75 af 3d 06 75 97 3d
       0.05993746 0.035524074 0.08567281 0.07395367
000080 bc 86 33 bd f3 f9 c8 3c 38 e9 05 3d b0 7f 55 3d
       -0.043829665 0.024533248 0.032693118 0.052123725
000090 67 73 ea bd 1c 33 1d 3e 58 6a 9e bd 48 98 b1 bd
       -0.114477925 0.15351528 -0.07735127 -0.086716235
0000a0 d2 31 ac 3b 81 2f 92 3d 62 42 ca 3d dd 1b 40 bd
       0.0052549625 0.07137967 0.09875943 -0.046901572
0000b0 a0 c3 16 be 70 4f 8c 3d e9 a7 30 3d be 47 88 3d
       -0.14723063 0.06851089 0.04312888 0.06654309
0000c0 64 40 df bd 57 ea 9e bd 28 22 23 3b 8b 7a 0a be
       -0.109009534 -0.077595405 0.0024892185 -0.13523309
0000d0 6c 87 33 bd 00 91 fa 3d eb 56 1f 3e de 6c 4f 3d
       -0.04383032 0.12234688 0.155605 0.050640933
0000e0 8f 23 00 be 31 b1 d3 bd 5d 44 8c bc 4c 10 e7 3b
       -0.12513565 -0.10336531 -0.017122442 0.0070515033
0000f0 45 b1 82 bd e8 20 79 bc 6d b9 82 bc 79 46 3d bd
       -0.06381468 -0.015205599 -0.015957559 -0.046209786
000100 a1 e7 5f 3c 2c d1 2d be ea fc b6 3d 97 b3 54 be
       0.0136660645 -0.16974324 0.08934958 -0.20771633
000110 55 70 f2 3d df 8f 56 bd 30 6c 35 bd d3 a3 99 bd
       0.11837832 -0.0523833 -0.04429263 -0.0750195
000120 ab 5c 13 3d 98 8d 2c 3d 29 c9 8c 3d 24 35 c3 3d
       0.035977047 0.04212722 0.06874306 0.0953162
000130 68 1d 0e be 39 2f a9 3d b9 e9 ac 3d 50 9f cc 3d
       -0.13878405 0.0826096 0.084430166 0.09991324
000140 af 3c 53 3d 50 98 1e be 6a 35 05 3d be c2 09 3e
       0.051571544 -0.1548779 0.032521643 0.13453194
000150 3b d2 e7 bd 47 5a cc bd f9 ba e2 3d 97 8b fe 3d
       -0.11319395 -0.099781565 0.110708185 0.124289684
000160 8e 02 c1 3d 78 55 0d be 01 c8 2f ba 3d 50 bd bd
       0.094243154 -0.13802135 -0.0006705523 -0.0924382
000170 4c 72 8a 3d c0 2a 39 3e 82 e8 9c bd e7 86 fc 3d
       0.06760082 0.18082714 -0.07661535 0.12330418
000180 61 33 cd bd 33 41 02 3e 05 f4 bd bd 01 66 90 bd
       -0.100195654 0.12720184 -0.09275059 -0.07050706
000190 87 1e 4b 3d 55 5a a0 bd 4e 50 cf 3d b2 8a a6 bc
       0.04958966 -0.078297295 0.10122739 -0.020329807
0001a0 6f 25 01 be dc 52 c9 3d f5 26 92 3c 8c 6e 06 bc
       -0.12611936 0.09830257 0.017840842 -0.008205067
0001b0 03 4b c7 bd 92 33 dc 3d 16 77 c0 bd 53 2a ff 3c
       -0.09731104 0.10752024 -0.09397714 0.031148111
0001c0 46 ef 83 be 6f a2 ab bd 14 c1 a0 bd ad 6d e9 3d
       -0.2576849 -0.08380591 -0.07849327 0.11397872
0001d0 03 c0 54 bb e8 4e 76 be 25 56 b7 3d 24 e7 9e bd
       -0.003246308 -0.24053538 0.08951978 -0.0775893
0001e0 b3 45 a3 bc 6b 50 42 be 4d 8e e6 3d c8 1c 89 bd
       -0.019930696 -0.1897599 0.112576105 -0.06694943
0001f0 f2 40 3e 3d 73 ca c3 bb 6c 7a 96 3d de 22 8a bd
       0.046448655 -0.0059750616 0.07347569 -0.06744932
000200 96 83 4a bd 6d 20 12 3c 6a 83 fb bc 81 48 02 ba
       -0.049441896 0.008918864 -0.030702312 -0.00049699104
000210 b1 63 39 3e 13 e9 80 3d 01 9f 01 3e 1b 21 f9 3c
       0.18104436 0.062944554 0.12658311 0.030411294
000220 92 4e a4 3d 60 dd f8 bd 8c 09 eb bb ed f3 91 bc
       0.080227986 -0.12151599 -0.007172769 -0.017816508
000230 11 3c 74 3d 19 c8 81 bd 3f 7e 6a 3d 93 76 02 be
       0.059627596 -0.06336994 0.057249304 -0.12740545
000240 95 88 00 3e 52 4d ae 3b 32 7d 07 be 91 06 66 be
       0.12552102 0.005319276 -0.13231352 -0.22463442
000250 0e 3d 5f 3c 01 d4 28 3d cd 34 20 be d5 89 0f bd
       0.013625396 0.041217808 -0.15645142 -0.035043556
000260 a3 89 0d 3e 26 15 cd bc c1 3c 00 bc 29 1b 0f be
       0.13822035 -0.025034498 -0.007826985 -0.13975205
000270 97 f5 a4 3c 3c a3 6a 3d 4c a0 02 be d8 9e 87 be
       0.020136638 0.05728458 -0.12756461 -0.26488376
000280 dc d9 16 3d 96 2c df 3d 4d 8d 05 bd fc 65 db bc
       0.03682886 0.10897176 -0.032605458 -0.026782028
000290 1e 2b 2a 3d 78 2e 84 bd 56 8a 81 bd f3 c8 e3 bd
       0.041545026 -0.06454176 -0.063252136 -0.111223124
0002a0 d1 cb 88 bd dd 41 87 be 56 42 9d 3d 32 2c 93 bd
       -0.066795 -0.26417437 0.07678668 -0.07186164
0002b0 08 20 54 3e 09 f0 1b 3d b5 19 49 3e 3b 11 f7 3d
       0.20715344 0.038070712 0.19638713 0.12063833
0002c0 0d 80 bf bc 30 0c ca 3d 69 4b bd bd 6b fb 69 be
       -0.023376489 0.09865606 -0.09242899 -0.22849815
0002d0 4d a2 75 3c fc 39 f6 bd d6 bf d1 3c b2 13 8e bc
       0.014992309 -0.120227784 0.02560417 -0.017343376
0002e0 22 33 8d bc c3 5e de bd d5 dd d4 bd d2 af 08 be
       -0.017236296 -0.10857918 -0.103938736 -0.1334832
0002f0 10 49 b6 3c b6 6f 8a 3d 95 aa 01 be f4 64 0d be
       0.022251636 0.067595884 -0.12662728 -0.13808042
000300 30 2a 0c be 56 1f 45 3d 69 c7 e8 3c c9 bb 57 be
       -0.13687968 0.048125587 0.028415399 -0.21067728
000310 0e fd 7c 3b 51 19 22 be d8 db 2f be dd 49 15 be
       0.003860298 -0.1582997 -0.17173707 -0.14578958
000320 c5 a0 19 3d cf 43 01 3d b4 6a 77 be 38 e7 67 3d
       0.037506837 0.031558808 -0.24161798 0.05661699
000330 3d e8 f7 3d 61 bf 52 3d d2 23 3d bd cb e9 85 3d
       0.12104843 0.051452044 -0.04617674 0.06538733
000340 49 5a bc 3a 6e da d9 3d 4d f7 c2 3d 90 8d e6 bd
       0.0014370169 0.10637365 0.09519825 -0.1125747
000350 74 c4 19 3e 02 b9 20 be 7f ee eb bd be 30 90 3b
       0.15016347 -0.15695575 -0.11520099 0.004400342
000360 d7 80 55 3d 7d ae 8a 3d a6 65 ac 3d a3 1f 05 be
       0.052124824 0.06771562 0.084178254 -0.1300035
000370 90 df f9 bd 2c b3 c7 3c 80 51 e7 3d 25 a2 07 3d
       -0.12200844 0.024377428 0.11294842 0.033113617
000380 b1 2d 64 be e5 12 69 3d 5f e4 58 3e c5 95 1b be
       -0.22283055 0.056902785 0.21180867 -0.15193851
000390 41 12 62 bd 61 1e 5d bd e6 f0 db bd 7b ab 25 3c
       -0.05519319 -0.05398405 -0.10739307 0.010111685
0003a0 a6 b6 7b 3d 2e f9 29 bd c9 f9 be 3b 7a ab 1a 3d
       0.061453484 -0.041497402 0.0058281166 0.03776119
0003b0 ce d9 e2 3d 3d 67 25 3e a1 74 b2 3a b6 d3 d8 3d
       0.11076699 0.16152664 0.001361508 0.10587256
0003c0 ad 6f b5 3d 98 2a be 3d 45 23 1e bc 3c 72 15 3e
       0.08859191 0.09285468 -0.009651964 0.14594358
0003d0 8b 5b 88 bd ba 53 3f bd 67 f5 95 bd 5e 20 12 3e
       -0.066580854 -0.046710707 -0.073221974 0.1427016
0003e0 21 29 d5 3c 95 cb 18 3d 55 b5 4a bc c5 44 b2 3c
       0.026020588 0.037303526 -0.0123723345 0.021761307
0003f0 36 9f 2d 3e 66 51 84 3d 01 b3 78 be de 9d 6c 3c
       0.16955265 0.06460838 -0.24287035 0.014441935

backbone.fc2.bias f4 [64]
000000 c2 1a 0e 3d f5 16 cb bd 45 4b 4b bd 04 5f 15 bd
       0.034693487 -0.09916488 -0.04963233 -0.036467567
000010 e0 1a b3 bc 94 6b c9 bd 97 89 d7 3b b7 f0 8f 3d
       -0.021863401 -0.09834972 0.0065776813 0.070283346
000020 98 99 e4 bd a3 49 a6 3d 62 bc 78 bd 3c 72 b1 3d
       -0.11162108 0.08119514 -0.06072653 0.086643666
000030 0f e9 13 bc b8 1d a9 bd 2b 7f f2 bc 03 10 b0 3d
       -0.0090277335 -0.082576215 -0.029601654 0.08596804
000040 37 d4 85 bb 8c 68 19 3d 17 7f de 3d 25 f3 82 3d
       -0.004084136 0.03745322 0.10864084 0.063940324
000050 81 e6 c6 bd 8f 19 b5 bc 83 ce 0f 3d 1a 6b df 3d
       -0.09711934 -0.022106914 0.035109054 0.109091
000060 6f b8 9c 3d 11 b7 ef bc 49 cf 5f bd 0d 13 7e bd
       0.076523654 -0.029262098 -0.054641042 -0.062029887
000070 58 77 54 3d 34 4a 6f bd f3 d5 9c bd 3d 40 e8 3b
       0.051871628 -0.058420375 -0.07657995 0.007087736
000080 0d 0d 53 3d 8a 19 b5 bd d0 44 b9 bd fa 2b dc 3d
       0.051526118 -0.08842762 -0.09046328 0.10750575
000090 19 a8 f3 bd b6 fb 9b 3b b6 30 95 bd aa 46 43 bd
       -0.118972965 0.004760231 -0.072846815 -0.047674812
0000a0 ca 48 4d bc 2c e6 68 3d 7f 58 ea 3d a2 cf 30 bd
       -0.012529561 0.056860134 0.114426605 -0.043166764
0000b0 90 7b d9 3c 88 08 1c be f3 32 a9 bd d5 11 63 ba
       0.026548177 -0.1523763 -0.08261671 -0.000866202
0000c0 f4 65 b8 bd ac df 9e 3c 7f 0b 99 3c f5 eb f6 bd
       -0.09003821 0.019393764 0.01868224 -0.12056724
0000d0 df 5a e4 bd b5 13 a7 bd 18 0c 27 3d 4e 72 58 bd
       -0.11150145 -0.08158056 0.040783018 -0.052843384
0000e0 ce a0 33 3d 17 3c 0d be bb 81 20 3d e8 ae b2 bc
       0.043854527 -0.13792454 0.03918622 -0.021811917
0000f0 8c a5 4d bd 7d fa 9b bd c5 78 4e 3c 95 35 89 3d
       -0.050206706 -0.07616136 0.012602036 0.06699673

backbone.norm.weight f4 [64]
000000 ff 2b 7f 3f bd 11 82 3f a1 e5 84 3f 8f cf 8b 3f
       0.9967651 1.0161663 1.0382577 1.0922717
000010 ab 41 8a 3f 0a f4 8b 3f e2 4e 87 3f 78 b2 84 3f
       1.080129 1.093385 1.0570948 1.0366964
000020 06 83 8f 3f a3 33 8c 3f 02 bb 8f 3f d8 28 8b 3f
       1.121186 1.0953258 1.1228945 1.087184
000030 2d 55 98 3f 44 3c 81 3f 71 2e 7a 3f 39 3b 89 3f
       1.1900994 1.0096517 0.97727114 1.0721198
000040 92 39 8c 3f 88 ca 8c 3f 32 31 93 3f c6 3a 8f 3f
       1.0955069 1.0999308 1.1499388 1.1189811
000050 2e 98 89 3f b4 a3 82 3f 9e 0c 8c 3f 1e dc 89 3f
       1.0749567 1.0206208 1.094135 1.07703
000060 a6 00 7e 3f 05 45 90 3f 91 b7 88 3f 19 8d 81 3f
       0.9921974 1.1271063 1.068102 1.0121185
000070 8a 38 8d 3f b4 2e 98 3f 8e 1a 82 3f 7f 09 8c 3f
       1.1032879 1.1889253 1.0164354 1.0940398
000080 d9 f8 82 3f 5c 63 8d 3f 74 5d 8a 3f a7 d9 96 3f
       1.0232192 1.1045947 1.080977 1.1785172
000090 55 15 83 3f 3c 60 87 3f fa cb 89 3f 44 58 81 3f
       1.0240885 1.0576243 1.0765374 1.0105062
0000a0 79 a9 82 3f dc 4f 88 3f ef 01 8b 3f 9b d5 8e 3f
       1.0207969 1.0649371 1.0859965 1.1158937
0000b0 96 d3 8b 3f 56 82 86 3f 6f 4c 86 3f 76 4f 8e 3f
       1.0923946 1.0508525 1.0492076 1.1118
0000c0 5a f6 82 3f 06 50 88 3f ec 99 75 3f 2a 16 89 3f
       1.023143 1.0649421 0.9593799 1.0709889
0000d0 91 8c 83 3f 51 17 87 3f 42 29 8a 3f 1b 2f 82 3f
       1.0277272 1.0553991 1.0793841 1.0170625
0000e0 a1 c0 87 3f 2a 8d 86 3f 3e 0f 8e 3f d8 84 89 3f
       1.0605661 1.051183 1.1098402 1.0743666
0000f0 81 0d 8b 3f 93 a8 92 3f 28 63 88 3f 9c f6 82 3f
       1.0863496 1.1457695 1.065526 1.0231509

backbone.norm.bias f4 [64]
000000 02 05 4d ba bd fe 77 3d 07 6f 51 3d 26 69 e6 3c
       -0.00078208756 0.06054567 0.051131275 0.02812631
000010 ba 3e 5e 3d fa 9e 6d 3c 17 5d 28 bd 79 d0 cf 3c
       0.05425904 0.014503235 -0.041104402 0.025367962
000020 0b 29 c9 3c a9 21 4d 3d 82 b1 3a 3d 99 e8 2f bc
       0.024555704 0.05008093 0.04557944 -0.010736608
000030 c7 53 0a bd 29 85 aa 3c a0 d5 8b 3d e0 e5 c0 bb
       -0.033771303 0.020815449 0.06827855 -0.0058867782
000040 61 1e 9c 3d b8 56 04 bc 02 b2 34 3b 1e 23 09 bd
       0.07622982 -0.008077316 0.0027571921 -0.033480756
000050 68 69 ae bc da ea f6 bb 48 e1 e4 bb e4 9d de 3b
       -0.021290496 -0.0075353207 -0.0069848634 0.0067937244
000060 4a eb 4f 3c 84 7a 12 3d 95 5e 51 3c f4 67 3f 3d
       0.012690375 0.03576137 0.012778898 0.046729997
000070 8b aa b2 b6 42 7b 67 3d 9a b0 39 3d 4b 03 44 3c
       -5.324667e-06 0.056514032 0.045334436 0.011963676
000080 55 4f 5f 3c 30 97 12 3d 5a e3 ee 39 58 86 61 3d
       0.013629754 0.035788715 0.00045564288 0.05505976
000090 30 c9 34 3c 30 1b 80 3d e3 9e 98 3a e2 c6 81 3d
       0.011034295 0.062551856 0.0011644032 0.06336762
0000a0 bf 83 35 3d e2 c9 8a bc 29 05 85 3d 25 26 8e 3c
       0.044315096 -0.016941968 0.06495125 0.017352173
0000b0 7b 9b 8a 3d 58 9b e4 bc ab 6c 1f 3d e2 a5 95 3c
       0.06767937 -0.027906105 0.038921993 0.018267576
0000c0 32 35 5b 3d 00 c8 51 3d af fa 94 bc a0 98 c3 3c
       0.053517528 0.051216125 -0.018185942 0.023876488
0000d0 0c bc 05 ba b8 b9 22 3d 34 95 da bc 22 c9 31 bb
       -0.00051015685 0.039727896 -0.026682474 -0.002712794
0000e0 1e ac e7 3c f1 4f bc 3c a5 00 fd 3b c4 f5 b6 3c
       0.028280314 0.022987338 0.007721024 0.022333987
0000f0 c5 ef 84 bd e3 eb c3 bc 3f 9c f3 3b 8a ee 87 bc
       -0.06491045 -0.02391619 0.0074343975 -0.016593236

experts.0.fc1.weight f4 [64, 64]
000000 8e 8d b6 3c 57 3b fa bd ee a3 ba 3d 51 e9 0a 3e
       0.022284295 -0.122183494 0.09113298 0.13565566
000010 75 d7 a9 bd ee e4 9d bd f9 be 64 bc 8d e4 e9 bd
       -0.08293048 -0.077096805 -0.013961547 -0.11420546
000020 4e ce a6 bd 26 b2 37 3b 6c e7 08 be fa 70 23 bd
       -0.08144818 0.0028029769 -0.1336953 -0.039902665
000030 6c 68 84 3d 93 05 5d 3c 09 44 70 bd 1b 53 f1 bd
       0.064652294 0.0134900985 -0.058658633 -0.11783429
000040 37 18 18 bd 7a e5 c2 bd 4a 9f f6 3a b5 29 95 bd
       -0.037132468 -0.095164254 0.0018815782 -0.072833456
000050 e0 40 29 3e bc fb 5a 3d 5a 82 09 3e 66 1b 34 be
       0.16528654 0.05346273 0.13428631 -0.17588577
000060 8a 18 c1 3d 75 1f c0 bd 84 5f 55 b9 5f e5 62 be
       0.094285086 -0.09381 -0.00020348845 -0.2215781
000070 f4 99 be bd ea 64 51 3e a0 26 8a 3d 3e 35 df bd
       -0.09306708 0.20448652 0.067456484 -0.10898827
000080 49 2e 9c 3c 0c 6f 30 3d 7f 7b 51 3c fd e9 a3 3c
       0.01906504 0.043074653 0.012785791 0.020009035
000090 be 67 e0 3d 18 bd 08 3e 3b 0c c7 bc ae 67 43 bc
       0.10957287 0.13353384 -0.024297824 -0.011926575
0000a0 fb 13 a4 3d 04 49 cf 3d fc 0d 53 3c 8e 28 cc bb
       0.080116235 0.101213485 0.012881752 -0.0062304204
0000b0 e6 27 d7 3d b1 55 59 bd b1 c4 bf bd 6c 14 5c 3e
       0.10505657 -0.053060237 -0.09363688 0.21492165
0000c0 bd 08 3d 3d 8b e2 67 bc 80 d9 be 3d 4a 40 14 be
       0.04615091 -0.014153133 0.093188286 -0.1447765
0000d0 1f 65 f1 bd 94 c3 62 3d fc 17 08 be db 6a 32 3d
       -0.117868654 0.0553623 -0.132904 0.043558937
0000e0 9a c4 6e b9 0c 59 e1 3d 64 89 d5 3c a4 dd ff 3c
       -0.00022770689 0.110033125 0.02606649 0.031233616
0000f0 4a d6 5a bd a5 2c 44 3e 2b db 30 bd 42 1f 73 3b
       -0.05342702 0.19157656 -0.043177765 0.0037097489
000100 ae c7 2b 3e 33 9a 97 bd ff 93 2d be fc cf 4b bd
       0.1677539 -0.07402458 -0.16950987 -0.049758896
000110 49 3c 04 bd 20 df 3b 3d 96 db cc 3d c8 a2 5c bc
       -0.032284055 0.045867085 0.1000282 -0.013466544
000120 a7 8c 93 3c 6c 9a 09 bd 09 76 c9 bd 7b 28 cf 3d
       0.018011404 -0.033594534 -0.098369665 0.10115143
000130 11 bd 0a 3e 66 31 a0 3c 5d 3b cc bd b4 c6 f7 bb
       0.13548686 0.019554805 -0.0997226 -0.007561529
000140 84 68 e3 3c 3b 2c d0 3d 3d 72 11 3d 2a 9e 7b bc
       0.027759798 0.10164686 0.035509337 -0.0153575335
000150 4e d8 bc 3d de dd 86 3d 98 1f 1c 3e 7f 02 94 3b
       0.09220944 0.065852866 0.15246427 0.004516899
000160 b8 4f 15 bd a3 8d 4d be 2d e6 be bd 5d a0 d7 bd
       -0.03645298 -0.20073561 -0.09321246 -0.10528634
000170 cb d9 ea bd f2 64 1f 3e 65 22 95 bd cc 1d 36 bc
       -0.11467322 0.15565851 -0.07281951 -0.011115503
000180 20 a4 1d be e1 d3 29 bc e5 bf 13 3c 1f 36 81 3c
       -0.1539464 -0.010365457 0.009017919 0.015772877
000190 ac 80 72 bd c5 d3 14 bc 0f 20 f9 bd e8 e0 fa bd
       -0.059204742 -0.009083693 -0.12164318 -0.12249929
0001a0 52 6a ed bc 4d c8 ff 3d 93 0e f4 3d ee 14 8d 3d
       -0.028981362 0.12489376 0.11916842 0.06888758
0001b0 24 90 1c be f6 5d 37 3c cb 13 6a 3d b3 87 f0 bb
       -0.1528936 0.011191836 0.057147782 -0.0073403954
0001c0 34 0f 3f 3e 90 a1 b2 bd f8 a4 93 3d 29 8a 90 3d
       0.18658143 -0.08722222 0.072092 0.07057602
0001d0 ae ed 4b bc ed 50 91 bc da 77 89 bd eb 22 49 bd
       -0.012446804 -0.017738784 -0.06712313 -0.049105566
0001e0 09 5b 38 3d 0f 94 06 be b3 a7 af 3d ad 17 09 3e
       0.045008693 -0.13142417 0.08576908 0.13387938
0001f0 27 32 ab bd 9e 1f f8 bc 96 65 37 3b 7b c0 78 3d
       -0.08359175 -0.030288514 0.0027984134 0.06073044
000200 d3 52 0f 3b 5f 59 d3 3c cf ac c3 bd 3d 7a 40 3e
       0.0021869435 0.025799451 -0.09554445 0.1879663
000210 a8 05 78 3c f2 08 07 3e 77 ef 07 3e b5 56 9e 3d
       0.015138067 0.13187006 0.13274942 0.07731382
000220 71 96 86 bd 83 eb d0 3d e0 ae a0 3c 2a 15 ff 3c
       -0.06571663 0.1020117 0.019614637 0.031138021
000230 77 da 8a bd 6d 47 10 3e 2f dc a4 bd 17 cd 45 3c
       -0.0677995 0.14089747 -0.08049809 0.012072823
000240 34 64 2f be bb 14 64 3e 0c 51 ea 3d 45 86 0c bd
       -0.17128068 0.22273533 0.1144124 -0.034307737
000250 c5 a3 28 3e 30 c4 8b bc 42 b6 2c 3e 6e 3f cb bd
       0.16468723 -0.017061323 0.16866401 -0.09924208
000260 e9 e8 b9 3d 46 d9 17 be c8 e4 3b be 40 e7 0f 3d
       0.09077627 -0.14828977 -0.18348992 0.035132647
000270 59 fc ba bd 2b 63 14 bd 1f 94 d2 bd a7 19 71 3d
       -0.09130163 -0.036227386 -0.10282158 0.058862355
000280 b4 5a 20 be 78 12 55 3c 7e 1a 58 3d 84 f5 12 be
       -0.156596 0.013004892 0.05275964 -0.1435147
000290 1f 9b d5 bb dc 20 c3 bc d6 6d 24 be b8 32 f7 bd
       -0.006518736 -0.02381938 -0.16057524 -0.12070221
0002a0 ed 3d d3 3d 51 f8 82 bd 5b 6e 82 bd 16 33 04 3d
       0.10314546 -0.06395019 -0.06368705 0.03227528
0002b0 bd 94 31 be 1b 66 08 3e 69 24 b9 3c 7a 2f 8c bc
       -0.17341895 0.133202 0.02260037 -0.017112482
0002c0 ec 76 6c bd f5 14 40 bd 5f 52 d4 3c 2b 55 a7 bc
       -0.0577306 -0.046894986 0.025918184 -0.020426353
0002d0 12 c2 f1 3c 7e e8 1e 3d 1b 1f 4a be 2c 62 d1 bd
       0.029511485 0.03879594 -0.19738428 -0.10223803
0002e0 a5 85 75 bd 53 d3 48 bc d9 c3 4d 3d a2 30 29 3e
       -0.059941906 -0.012257415 0.050235603 0.16522458
0002f0 82 54 88 3d c4 dc f0 3c 97 c7 99 3d 18 92 96 3d
       0.066567436 0.029402144 0.07508772 0.07352084
000300 1f 1d 53 bd 38 e0 a9 3b 45 61 1e 3e 68 8b 4a 3d
       -0.051541444 0.0051841997 0.15466793 0.049449354
000310 22 f4 42 3c 5a ac 2d 3c d0 42 b5 3d ab 68 61 be
       0.011899026 0.010600174 0.08850634 -0.22012584
000320 02 26 b1 3b 16 82 d0 bd c1 c9 44 3e de 13 44 bc
       0.005406142 -0.10181062 0.19217588 -0.011967627
000330 c2 35 3f 3e b6 76 e3 bd c3 db 31 bd ae b7 60 bd
       0.1867285 -0.11106627 -0.04342247 -0.05486267
000340 12 dd 34 bd aa ff 1e be 1e 23 70 3d 3e 9b ec bd
       -0.04415614 -0.15527216 0.05862724 -0.115530476
000350 52 19 bc bc b3 b0 5f 3a d2 ed 68 bd 9a 79 f4 3c
       -0.022961292 0.0008533105 -0.056867428 0.02984314
000360 e7 9b 9a bb 6f 8e c4 3d a2 96 6a bd 9d 3f cb bb
       -0.004718292 0.095974796 -0.05727256 -0.0062026517
000370 5c ce ca 3c 3c f0 cb 3c 63 d8 81 3d 34 b0 09 bc
       0.024756603 0.024894826 0.063401006 -0.0084038265
000380 af f2 a9 3d 36 ec bc bd 24 0f b0 bd 69 fb d7 bd
       0.08298241 -0.09224741 -0.08596638 -0.105459996
000390 8c 87 c2 bd f0 e3 11 3e da 2d d8 3d ca 2f e1 3c
       -0.0949851 0.14247108 0.105556205 0.027488608
0003a0 4d 49 d5 bd 92 69 3a 3d 53 6b c7 3c 60 7f 02 be
       -0.10414372 0.045510836 0.024343168 -0.12743902
0003b0 30 f7 88 bd 47 01 91 3d c7 b0 bb 3d 47 5c 3f 3e
       -0.06687772 0.07080322 0.09164577 0.18687545
0003c0 d6 af 3f bc 69 b1 a3 bd 4f c2 3b 3b e6 26 70 bc
       -0.011699637 -0.07992823 0.0028649752 -0.014657712
0003d0 dc 59 2d 3d 2c a1 dd bb d5 b2 c6 3d 45 66 49 3c
       0.042322025 -0.006763598 0.09702078 0.012292449
0003e0 7d 32 48 3d 7e 32 1f 3d ae 0d b6 bd c1 0a a4 bd
       0.048876274 0.038866512 -0.08889328 -0.08009864
0003f0 7b 4d ee 3c 82 77 cc 3d 7a 97 ec bd 9d 22 96 3c
       0.02908968 0.09983732 -0.11552329 0.018327052

experts.0.fc1.bias f4 [64]
000000 6a a6 94 3d 67 4b 78 bc 48 b6 31 bd a2 48 f4 bd
       0.072583035 -0.015154696 -0.043386728 -0.11927916
000010 e1 72 92 3c 13 d5 31 bd 95 62 9f bd 24 f9 0c be
       0.017877044 -0.043416094 -0.07782475 -0.13766915
000020 bb 71 8a bb 76 18 3b be ab 97 bb bd d8 e1 3c 3d
       -0.0042249835 -0.1827105 -0.09159788 0.04611382
000030 09 d1 0f 3d 84 2c 9a 3d 89 a4 fd 3c 72 d5 0e be
       0.03511146 0.07528022 0.030962246 -0.1394861
000040 9f de 10 be c1 fe 02 be 5f 95 14 be f1 c0 79 bd
       -0.14147423 -0.12792493 -0.14510106 -0.06097502
000050 8b bd 78 3d 83 9d fb bd cc 45 2c 3d 54 59 66 3d
       0.060727637 -0.12285902 0.04205875 0.056237534
000060 87 2c 05 be e7 23 33 be 85 35 d2 bd 04 b5 0f be
       -0.13005267 -0.17494164 -0.10264114 -0.14033896
000070 6e a8 36 be 76 04 8c 3c 89 ac e3 bd 9c d6 92 3d
       -0.17837688 0.01709197 -0.11116893 0.0716984
000080 93 57 14 be c2 e1 2b bd be ed 07 be 7e ce 3b be
       -0.14486532 -0.041963346 -0.13274285 -0.1834049
000090 37 0e e8 3c da 8b 03 be ad 2b b7 bd dd 41 45 be
       0.02832709 -0.12846318 -0.08943877 -0.19263406
0000a0 42 b0 2c be 9b e6 46 bd 22 56 2d 3c 50 85 14 be
       -0.16864112 -0.048559766 0.010579618 -0.1450398
0000b0 23 72 5c bc 4a b7 8b 3d 87 63 90 3d e8 07 4f 3b
       -0.013454947 0.06822069 0.07050233 0.0031590406
0000c0 eb 81 b8 bd 57 5c 24 be 29 86 3c 3d 5f 34 1b be
       -0.09009155 -0.1605085 0.046026383 -0.15156697
0000d0 99 e0 0d be 36 bc bd bd 91 6d d3 bd c6 51 0c be
       -0.13855208 -0.09264414 -0.103236325 -0.13703069
0000e0 2d d0 73 bc 55 1f f8 bd 2e fd e0 bd 6b c9 93 3c
       -0.014881176 -0.12115351 -0.1098579 0.01804038
0000f0 b6 d7 7b bd fe 0e 89 bc 01 d3 a6 bd 67 45 02 be
       -0.061485015 -0.016730782 -0.081457146 -0.12721787

experts.0.fc2.weight f4 [10, 64]
000000 14 fb bc bd 66 84 c3 3c 00 f6 3d 3e 7e 10 3f 3e
       -0.09227577 0.023866843 0.18550873 0.18658635
000010 85 58 40 bd 91 b3 8b 3e ac 8a c4 bd 41 24 ed 3d
       -0.04695942 0.27285436 -0.09596762 0.115791805
000020 f8 bd 82 3e 4a 48 67 be 84 31 f0 3c 91 9c 7a bd
       0.2553556 -0.2258617 0.029320486 -0.06118447
000030 c2 33 10 be 7b 0a 87 be 6c 60 4d 3c 3b c2 0a 3e
       -0.14082244 -0.26375183 0.012535196 0.13550656
000040 64 ba 6d be 9c bb 34 bd c0 8a c6 bd 4b 21 30 be
       -0.23215634 -0.04412423 -0.09694433 -0.172002
000050 ef b7 46 be 63 5b 32 3e ec 68 cc 3c c0 31 e5 3c
       -0.19406103 0.17417674 0.024952374 0.027977824
000060 83 72 cf bb cd 6d 46 be 28 a0 93 bb e0 0e 61 3e
       -0.0063307895 -0.19377823 -0.004505176 0.2197833
000070 13 5d 13 be 99 e2 69 bc 55 ff 98 bd 68 fc 85 3e
       -0.14390974 -0.0142752165 -0.07470576 0.26169133
000080 ea b6 5b be 43 8c 1f be d0 49 68 3d 53 aa 57 be
       -0.21456495 -0.1558085 0.056711018 -0.21061067
000090 04 c7 c4 be 50 f1 80 be bb 43 b4 3e f7 d1 19 3e
       -0.38433087 -0.25184107 0.35207924 0.15021501
0000a0 98 2e 33 be e4 ae b1 bc 8a 89 1f bc ff dd 61 3e
       -0.17498243 -0.02168984 -0.009737382 0.22057341
0000b0 b7 34 90 be bb e2 73 3e 28 15 89 be 88 6b 0e 3e
       -0.28165218 0.2381696 -0.26773953 0.13908207
0000c0 9b 28 12 3d df d0 29 be d6 73 68 bd 62 37 2b be
       0.035683256 -0.16583584 -0.056751095 -0.16720346
0000d0 b1 dc 14 be 67 c3 a5 bd e8 95 c7 bd 48 0c 4c 3d
       -0.14537312 -0.08093911 -0.09745389 0.0498164
0000e0 42 a6 58 bd d1 ee 28 3e 91 7a 61 bd 64 25 8a bd
       -0.05289293 0.16497351 -0.05504853 -0.06745413
0000f0 4e 46 a2 3d 73 c8 d7 bd 7a 99 1b 3e 08 d3 48 be
       0.07923566 -0.105362795 0.15195265 -0.19611752
000100 ad 38 87 be c8 b6 bf bd f1 0d 92 3c 2e 8a 52 3e
       -0.26410428 -0.09361035 0.017828913 0.20560524
000110 fb 73 f8 3b 16 99 85 3c 76 04 a5 be 64 d3 f6 3d
       0.0075821853 0.016308349 -0.32229966 0.12052038
000120 cc 8b 37 3e 38 2c c7 bd 65 ce 60 3e e6 67 71 be
       0.17924422 -0.09725231 0.21953733 -0.2357479
000130 1c 57 e0 3d aa db 9b 3e bc 0f cb bd f9 95 03 be
       0.10954115 0.30441028 -0.099151105 -0.12850179
000140 fd 5f d4 3d e1 9f 91 bb fd e9 42 3e 58 15 31 3e
       0.10369871 -0.004444108 0.19034572 0.17293298
000150 5f b4 f6 3d 95 60 5e be 09 e3 3d 3e ea 7d 83 3e
       0.12046122 -0.2171653 0.18543638 0.25682002
000160 85 2e fb 3c bc ca 26 be 41 fe 9e bd a3 6d 0e be
       0.03066183 -0.16288275 -0.07763339 -0.1390901
000170 5a be 51 be 9a 91 7e be 5d e5 24 be 0b 57 6a 3d
       -0.2048277 -0.2486023 -0.1610312 0.057211917
000180 4b 94 59 3e 8d 31 1b be 0f 30 48 be d0 d1 26 bd
       0.21247976 -0.15155621 -0.19549583 -0.040727437
000190 7e 5c 71 3e 76 92 58 3e ed 0c 7a 3d 79 31 ed bd
       0.23570439 0.2114962 0.061047483 -0.11581702
0001a0 26 8d 04 3c 08 a2 ca bc 85 69 a2 bd c8 fd 01 be
       0.008090293 -0.024735466 -0.079302825 -0.12694466
0001b0 4e e4 6e 3e 5a 88 ad 3d 31 28 8d be ce f0 55 3e
       0.23329279 0.084732726 -0.27569726 0.20892641
0001c0 fe 38 0c 3e 56 66 d4 3d 28 0c 3c be b5 de 10 3e
       0.13693616 0.103710815 -0.18364012 0.14147456
0001d0 0e 6e 59 be 95 a0 3c 3b fc 50 21 be 9e a4 5c be
       -0.21233389 0.0028782238 -0.1575355 -0.21547171
0001e0 cc a0 24 be 3c f3 63 be 7a 30 67 3e 1d 8d 8e be
       -0.16076964 -0.22260755 0.22577086 -0.27842036
0001f0 fa 43 28 3b 95 90 2e 3e 0f f0 60 3d 89 cd 63 be
       0.0025675283 0.17047341 0.054916438 -0.22246374
000200 1b ec 0c 3e 7b 0d a5 3e e3 27 89 3e a5 de 1a 3d
       0.13761942 0.32236847 0.26788244 0.037809987
000210 5a c9 04 3e cc 6b 69 be 59 f2 04 3e bb df b8 3c
       0.12967435 -0.22795027 0.12983073 0.02256762
000220 f1 3f df bd 75 49 0c 3e 56 ef 4b 3d b6 94 a8 bd
       -0.10900868 0.13699897 0.049788795 -0.08231489
000230 3c 22 4e bd 71 7d 59 be 24 c3 ca 3d 06 0b 6c be
       -0.050325617 -0.21239258 0.09900501 -0.2305108
000240 88 f0 39 3e 7d e4 fe 3d 5a 7a 53 be 8b 7f ab 3c
       0.18158162 0.124459244 -0.20652142 0.02093484
000250 f3 bd 61 bd a1 29 cc 3d 92 1e 42 bc 7d 69 8d 3e
       -0.05511279 0.099688776 -0.011848109 0.27619544
000260 2f ab 6f be 61 d5 1f 3e 6e 02 22 be cf 7f bd bd
       -0.23405145 0.15608741 -0.1582124 -0.09252893
000270 4e 90 81 3e 53 30 a0 be 4e 95 b1 3d ab 10 87 bd
       0.25305408 -0.31286868 0.08671056 -0.06594976
000280 52 68 0f 3e ba 0d 4b 3e 51 5e ab bd b0 77 24 be
       0.14004639 0.19829455 -0.08367599 -0.16061282
000290 f5 58 a0 be f4 2e 4c be 8d 2e 33 bd 14 bb ef 3d
       -0.3131787 -0.19939786 -0.043745566 0.11705604
0002a0 0c c9 0e bd 02 96 d6 bd 0e c5 87 be 11 0a e8 bb
       -0.034859702 -0.104778305 -0.26517528 -0.007081278
0002b0 bd 60 16 bd 6d 14 0a 3e 54 2d 5a be 7c ed 08 3e
       -0.03671335 0.13484354 -0.21306354 0.13371843
0002c0 ac d6 47 be 4f b5 3a 3b 25 fd 51 bd 60 0b 64 3e
       -0.19515485 0.0028489416 -0.051266808 0.22269964
0002d0 82 c4 66 be ee 06 07 be b9 69 d7 3d 51 56 23 be
       -0.225359 -0.13186237 0.10518212 -0.15950896
0002e0 32 6b 64 be eb 6f d0 3c 32 54 93 bd d1 e4 16 3e
       -0.22306517 0.025443992 -0.07193793 0.14735724
0002f0 c3 a1 d2 bd f2 3b 31 bd 71 66 76 be 0b 1f 0e be
       -0.1028476 -0.04327006 -0.24062516 -0.1387903
000300 64 e0 f4 bd 33 dc c5 bd 7e e1 09 3e 4d 1f 99 bd
       -0.119568616 -0.0966114 0.13464925 -0.07476673
000310 b5 c7 54 be f2 1e 27 3e 6b 06 7a bc f8 78 f5 3d
       -0.20779307 0.16320398 -0.015260319 0.119859636
000320 bb b9 50 3b 8c c7 d2 bd 1b a1 c9 3d 11 24 97 be
       0.0031848985 -0.10291967 0.098451816 -0.29519704
000330 75 0d 52 3d f5 2b 29 bd dc 42 57 be 06 35 6f be
       0.051282365 -0.041301686 -0.21021599 -0.2336007
000340 e2 64 aa bd 2b 37 62 be 1f 96 b6 be 39 27 21 bd
       -0.08320023 -0.22091357 -0.35661408 -0.039344046
000350 82 13 6f 3e 5a ab 85 bd 1b 01 64 be ce e1 59 be
       0.23347285 -0.06526823 -0.22266047 -0.21277544
000360 80 72 52 3e 3d 78 73 bb d9 5b 27 3e 7f 80 39 bd
       0.20551491 -0.0037150525 0.16343631 -0.04528856
000370 d4 bc 81 3d 87 d2 02 3d b5 11 c7 bd 13 4e f8 bd
       0.06334844 0.031939056 -0.09720174 -0.121242665
000380 c3 4a 8a be fa c6 b8 3d a6 d1 91 be 3f 46 80 3c
       -0.27010164 0.09022327 -0.28480262 0.015658496
000390 61 be a4 bb b3 32 47 3d 87 41 31 bc d3 e1 50 3e
       -0.0050275777 0.048632335 -0.010818846 0.20398645
0003a0 10 3e 6e be 92 82 7c be 0d 75 10 be 36 41 42 3d
       -0.23265862 -0.24659184 -0.14107151 0.04742547
0003b0 6c 45 3c 3e 67 68 46 be 95 7a aa bd b8 44 30 be
       0.18385857 -0.19375764 -0.08324162 -0.17213714
0003c0 e1 69 d3 3b 3a 9b be 3d ef 7e 6b 3e 1f 70 a2 3d
       0.0064518307 0.09306951 0.2299764 0.07931542
0003d0 60 9e 4a 3e 2f 1e 4c 3e 7a 20 86 3e 9a 3b 18 3e
       0.19786978 0.19933389 0.26196653 0.14866486
0003e0 4d 0e 93 3e d2 6e 4a 3e b1 b0 fd bd 66 13 2f be
       0.28721848 0.19768837 -0.12387217 -0.17097244
0003f0 4f aa 09 3e 62 f0 4d 3e 32 36 32 be 28 95 5b be
       0.13443874 0.2011123 -0.17403486 -0.21443617

experts.0.fc2.bias f4 [10]
000000 50 39 8b bd 61 c5 a9 3c 1f 47 dc bd ac e3 05 3e
       -0.06798041 0.020724 -0.10755753 0.13075131
000010 43 6d 14 be 09 0f 3c bd e5 ea da bc dd ab 83 bc
       -0.14494805 -0.045912776 -0.026723335 -0.016073162
000020 74 9b f5 bc 4f 6a 07 be
       -0.029981352 -0.13224147

experts.0.norm.weight f4 [64]
000000 fe ec a4 3f cb d0 a8 3f 77 96 9f 3f 6d 07 a2 3f
       1.2884824 1.3188719 1.2467793 1.2658516
000010 33 ec 97 3f 2c 6f ab 3f 63 6f ae 3f 72 be a8 3f
       1.1868957 1.3393302 1.3627743 1.3183119
000020 fd c9 af 3f 2e 6b a0 3f c1 ae 97 3f bf 2a a5 3f
       1.3733517 1.2532709 1.1850206 1.290367
000030 ef b0 93 3f 5a c0 a0 3f bf e8 8f 3f 66 14 a2 3f
       1.1538371 1.2558701 1.1242903 1.2662475
000040 68 53 a8 3f 18 50 9c 3f ac e5 b2 3f d3 c3 9a 3f
       1.3150454 1.2211943 1.397634 1.2091011
000050 a7 02 9b 3f c2 e8 9c 3f d8 88 9b 3f 6c 20 ba 3f
       1.2110184 1.2258532 1.2151136 1.4541144
000060 3f d8 a9 3f ea 69 af 3f 72 cd 9b 3f b0 32 97 3f
       1.3269118 1.3704197 1.2172072 1.1812344
000070 bb 38 af 3f 01 8c b6 3f 8d 16 a0 3f 04 9e ae 3f
       1.3689188 1.4261476 1.2506882 1.3641973
000080 07 9e a7 3f bb 99 a2 3f e7 15 b3 3f 1d c4 97 3f
       1.3095101 1.2703165 1.3991059 1.1856724
000090 81 35 ba 3f ae b3 a1 3f c2 94 9c 3f 73 17 a8 3f
       1.4547578 1.2632959 1.2232897 1.3132156
0000a0 18 c4 90 3f b9 e7 96 3f ad 95 9c 3f d5 03 b2 3f
       1.1309843 1.1789466 1.2233177 1.390742
0000b0 bf fd ae 3f 7d 6d 99 3f 22 25 b2 3f ca 86 a1 3f
       1.3671187 1.1986538 1.3917582 1.2619259
0000c0 4e 99 9f 3f 4f 22 96 3f b9 6b a6 3f 01 3d a3 3f
       1.246866 1.172922 1.3001624 1.2752992
0000d0 3d d6 ab 3f 44 97 9a 3f 11 51 a8 3f 39 30 a6 3f
       1.3424755 1.2077413 1.314974 1.2983466
0000e0 82 95 a1 3f 8b 75 a7 3f 38 74 b3 3f 93 95 a7 3f
       1.2623751 1.3082746 1.4019842 1.3092521
0000f0 06 ec 98 3f cb 7f b0 3f 16 cf ac 3f d4 53 a8 3f
       1.1947029 1.3788999 1.3500698 1.3150582

experts.0.norm.bias f4 [64]
000000 7d b1 9b bd 75 b6 3a bc d3 f8 6a bb 24 06 8b bd
       -0.076022126 -0.01139604 -0.0035853877 -0.067882806
000010 2c af c5 3c 94 b5 e6 bb 4a d2 38 bd 5f 49 14 3d
       0.02413138 -0.007040689 -0.045122422 0.036202785
000020 bd 8e 9d bd 82 b2 64 3d b4 49 02 3d 66 cd 78 bd
       -0.07693241 0.0558343 0.03180857 -0.06074276
000030 43 0f dd 3d 65 ed e3 bc d6 50 7b 3d 76 1a 25 3c
       0.107939266 -0.02782316 0.061356388 0.01007711
000040 a2 ea 79 3c 09 bb 2f bc 46 a9 dd bb 2a f2 b9 3b
       0.015253695 -0.010725745 -0.0067645637 0.00567462
000050 70 b6 a3 3d 7a 24 84 bd 76 51 31 bd 66 79 b4 bd
       0.079937816 -0.0645227 -0.043290578 -0.088122174
000060 30 ef 78 3c 6f 56 f4 bc 30 b1 c0 3d a0 34 05 ba
       0.0151937455 -0.029826371 0.09408796 -0.0005081389
000070 82 2b ae 3d 69 84 d3 bc af 1b d9 bd 66 a9 0f bd
       0.08504392 -0.025819974 -0.10600983 -0.03507366
000080 3e 25 02 bc 49 fc 7c 3d 84 f3 03 bd a9 9d b0 3c
       -0.00794345 0.061764035 -0.032214656 0.021559553
000090 8e 29 7f 3c 34 10 0f 3d 59 bc 39 bd e7 95 13 bd
       0.015573872 0.034927562 -0.045345638 -0.03603163
0000a0 1f 4b 83 bd 6c ae 3c 3d d3 c9 69 bd ec 86 ae bb
       -0.064108126 0.04606478 -0.05707724 -0.0053261425
0000b0 fd 5c 1c 3c 9d 79 68 bd 06 e3 4d bd 07 41 9a bd
       0.0095436545 -0.056756604 -0.050265335 -0.07531934
0000c0 f1 ef c8 3d 32 34 93 bc 3b fb 8f bd cb 2f 89 3d
       0.0981139 -0.017969225 -0.0703034 0.06698569
0000d0 ff 41 11 bd ce 22 f3 bb a6 e0 6a bd fb 9d 81 3d
       -0.03546333 -0.0074199205 -0.057343148 0.063289605
0000e0 65 ce 37 3d 3e a5 8b 3c fc ae 6a bd cc f7 81 3c
       0.044874568 0.017046567 -0.057295784 0.01586523
0000f0 31 5d ad 3d 65 8b 38 bd 72 80 d8 bc e4 46 52 bd
       0.084650405 -0.045054812 -0.026428435 -0.051337138
